models/model.pth (torch, 5760 bytes, 4 tensors)

lnetwork.0.weight f4 [64, 6]
00000000: 92c7 ecbe 97c6 e0be c1ed b63e 372d 243f
00000010: d1f1 c2bd 7922 74be 12b4 e73c aab0 50bd
00000020: 81b1 b33e f247 963f 731f acbe 2131 a1bf
00000030: 04fb 273d 0cc4 72bf 54dd 97bd 0a99 923f
00000040: 86b4 2cbd a4ed 8dbd 4486 dabe ed32 4c3e
00000050: 6243 f0bd ee80 b1be 8040 56be 7cd7 78be
00000060: a9f0 04bf b26b 5cbe cac5 263e dfd5 093f
00000070: 7e95 5c3e 7b65 6f3e f069 cb3e a200 813e
00000080: 2d24 3abd 0245 b83c 9cd5 9c3e da8b b33e
00000090: 5bed d2be f1b5 e7bc af05 cdbe b89a b63e
000000a0: d35d 58bc edfa acbe 5e14 61bf c9e9 803d
000000b0: 39f6 4f3f 51f0 14be 5b77 41bd a1a5 093d
000000c0: 4941 19be 7290 bb3d 26b6 1bbf 67fa 02be
000000d0: 4a97 4d3c b141 51bd c17f 863f e0fe 903f
000000e0: b68f 7cbf 70ab 93bf fa68 f33c 10dc b33c
000000f0: 9331 f3be 3597 eb3d c79d 5fbf a673 0d3f
00000100: 4d4d c3be ba44 11bf 3763 623e e6df e23c
00000110: e2be 35be 9543 99bd b221 823e 14d5 d33d
00000120: cfb4 e93d 4299 95be db02 ed3e c84c 953e
00000130: beb1 96be 2570 513d 657c eebe 4dcf edbe
00000140: 27de 823e 51b5 0b3f d106 a13e 16b5 5dbe
00000150: 8757 533f 8542 58bf b847 58bf cdeb 613f
00000160: 95f1 783b 49dd f13b d052 babe 31a1 abbf
00000170: 3846 d03e e098 283f 4329 173e 3c5a 2dbd
00000180: e59b c73d 0b80 3c3e f82e 5f3d 5db8 52be
00000190: 4bcb a7be 51ec a0bd ee68 86be d5d2 22bf
000001a0: ad5e a03d 9522 68bf a509 42bd 3ed8 8ebd
000001b0: 9aa5 81bf 9f41 9fbe 74af 853f b7ac 823e
000001c0: 2bf7 d23a f071 39bb 1125 5b3e 1081 c039
000001d0: 224b 7fbe 4094 8e3f fabb 243e 9c3d 91bf
000001e0: 2add 053e f2db a93d 9910 103f f3d5 f5be
000001f0: 3353 533d e13e de3c e0ed a2be 662a e2bf
00000200: 2ebf b43e 68d2 e23f 4f6b 443c 7f63 6ebb
00000210: dfbd 8fbc dda3 b63a 5ee7 59be a7e7 40bd
00000220: 3131 81be a4c9 833a 40ae b0be 8895 b6be
00000230: 3f21 bfbd b1ab f23e d823 8d3e 06e3 a23e
00000240: a08e 6c3e acf8 28bd 2fff d93d cbe3 7cbe
00000250: 857a 953e ee6b 01bf 1aa0 aebe d16a 6f3d
00000260: c889 2e3e 9f7a cc3c f74d cd3d 825f 0ebe
00000270: bb33 43be d41c 20be fcbd a83e b33b 683e
00000280: 5f5c b53e 4dab cd3c ab7c b43e 74e5 c13e
00000290: a807 543e f436 0f3f 3551 b6be 2a8b 743d
000002a0: d2ef 64be bc1d e13d 9f53 70be 1a70 203e
000002b0: 570f 6bbe c9e6 853e 0a87 d4bb 89c3 87bc
000002c0: 9295 09bf 3f39 9fbe f122 f93e edef a33e
000002d0: 0595 183f 2b4e 63bb 64dd 8dbe c113 9dbf
000002e0: 9139 183d a925 c23d 6309 cebe 99d0 7d3e
000002f0: e694 3abe ab7d 1dbc 6e2c 263e 4060 d13d
00000300: 0323 8bbd 7c12 5e3c f01d 4bbf 1fc0 063f
00000310: f954 403f 44fd 1fbf e663 8cbe 4c30 17be
00000320: ba05 ac3e a792 6ebe d302 92be 88a1 d43d
00000330: 9f51 313e cc5a 4fbe 4ccb 19bf e227 b6be
00000340: c534 d53e 2c83 0f3f 747a 283e 6110 05be
00000350: 3a3c f83d aa61 2cbe 5a01 c53b 261d 303e
00000360: 4e0c abbe 6850 0fbd cf84 ff3d 31ba 2cbd
00000370: 5d4f f3bc 0a47 273e b188 14be c62f 45be
00000380: 40fe 7bbe a83f 863f 67c8 9d3e 74fd 7cbf
00000390: 2245 3bbe f321 96be 6e0c 11be 36f1 573e
000003a0: 2e33 26be 9833 56be 2ecb fbbe cc7a b8be
000003b0: 39ec 51be 5127 1f3f b729 c33e e010 683e
000003c0: 6df5 7bbe edfd 4bbe 38c1 b43d 5036 1ebf
000003d0: 835a 083e dcef 5c3f 0a49 893e a2af 053e
000003e0: b0fc fdbc aad2 34bd 2d2e 22be c10e cfbc
000003f0: acf1 623e e739 73bf cdcb 5f3e 7b87 a2bd
-0.4624601 -0.43901512 0.35728267 0.6413149 -0.09518779 -0.23841275 0.028284106 -0.05094973
0.35096362 1.1740706 -0.33617744 -1.2593118 0.04101087 -0.94830394 -0.07415262 1.1452954
-0.042164348 -0.06930092 -0.42680562 0.19941302 -0.11731602 -0.34668678 -0.20923042 -0.24300951
-0.5192972 -0.21525458 0.16286388 0.53841966 0.21541402 0.23378555 0.3972926 0.25195795
-0.045444656 0.022493843 0.3063172 0.35067636 -0.41196713 -0.028284999 -0.400434 0.35664916
-0.013205963 -0.3378519 -0.879217 0.06294591 0.8123508 -0.14544798 -0.047232967 0.03360522
-0.1496631 0.0915841 -0.6082481 -0.12790833 0.012548277 -0.05108804 1.0507737 1.1327782
-0.98656785 -1.1536694 0.029713143 0.02195552 -0.4749876 0.1150345 -0.87350124 0.5525459
-0.38144913 -0.56745493 0.2210816 0.027694654 -0.17748597 -0.074835934 0.25416332 0.10343376
0.114114396 -0.2921849 0.4629124 0.29160142 -0.29432482 0.05113234 -0.4657928 -0.4644722
0.25560114 0.5457354 0.31450513 -0.2165111 0.8255543 -0.844765 -0.84484434 0.8825043
0.003798579 0.0073811156 -0.36391306 -1.3408567 0.40678573 0.6585827 0.14761834 -0.042322382
0.097465314 0.1840822 0.054488152 -0.20578142 -0.32772288 -0.07857574 -0.2625193 -0.63602954
0.07830558 -0.9067777 -0.04737248 -0.06974839 -1.0128663 -0.31104752 1.0444169 0.25522396
0.001609539 -0.0028296672 0.21400858 0.00036717253 -0.24931005 1.1138992 0.16087332 -1.1346927
0.13072649 0.08293904 0.56275326 -0.48014793 0.051593017 0.027129592 -0.3182211 -1.7669189
0.3530211 1.7720461 0.011988475 -0.0036375222 -0.017546592 0.0013934333 -0.21279666 -0.04709592
-0.25232843 0.00100546 -0.34507942 -0.35660958 -0.09332513 0.47396615 0.2756641 0.3181383
0.23101282 -0.041252777 0.106443755 -0.24696271 0.29195037 -0.5055531 -0.34106523 0.058451477
0.17044747 0.024960814 0.10024636 -0.13903621 -0.19062702 -0.15635997 0.32957447 0.22679023
0.35422036 0.025106097 0.35251364 0.3787037 0.20706046 0.55943227 -0.3560883 0.05970303
-0.22357109 0.109919995 -0.23469399 0.15667763 -0.2295507 0.26152638 -0.0064858245 -0.01657273
-0.5374385 -0.31098363 0.4865947 0.32018986 0.59602386 -0.0034684043 -0.2770797 -1.2271653
0.037164275 0.09479839 -0.40241536 0.24786605 -0.18220863 -0.009612481 0.16227886 0.10223436
-0.06793787 0.013554212 -0.79342556 0.52636904 0.7512966 -0.6249583 -0.27419966 -0.14764518
0.3359812 -0.23298131 -0.2851778 0.10382372 0.17316292 -0.2024948 -0.6007583 -0.35577303
0.41641822 0.5605953 0.16452962 -0.1299453 0.12120862 -0.16834131 0.006012124 0.17198619
-0.33407825 -0.03498879 0.12476503 -0.042169753 -0.02970093 0.16335693 -0.14505269 -0.19256505
-0.24608707 1.0488176 0.30816957 -0.9882424 -0.18288091 -0.29322776 -0.14164898 0.21088108
-0.16230461 -0.20918119 -0.4917845 -0.36031187 -0.20500268 0.6216937 0.38117763 0.22662687
-0.24605341 -0.19921084 0.08825916 -0.61801624 0.13315777 0.86303496 0.26813537 0.1305528
-0.03100428 -0.044146217 -0.15837927 -0.02527559 0.22162503 -0.95010227 0.21855088 -0.07935997

lnetwork.0.bias f4 [64]
00000000: e75c 453e ce95 e6bc 6286 f43d 27f3 82bd
00000010: 0645 da3e 470e 6dbe f783 c3bd f369 353e
00000020: 6145 e53e 05a9 0abe 5ea9 903d 3494 b9be
00000030: 4356 e63d 19b0 de3e 22f5 933c 5233 6d3c
00000040: 99dc 4fbe 1d1d ccba 68b0 58bc ac8a 95be
00000050: d889 c5be 8bbc 69bc 3c6d cebe 4116 c33e
00000060: b07e fcbd 7dc0 173e 6059 aaba b93d eabe
00000070: 66f5 bcbe ab9b e13c 8e7f 813d df09 c43e
00000080: 1ebd 853d 067c 4ebe ffc9 6ebb 449c c0be
00000090: aa3f cebe c224 863e 7094 bbbd e310 9c3e
000000a0: 58cc e5bc 7f25 c6be 8967 d93d 2860 3bbe
000000b0: 7912 12be 89b0 863e c4a1 983d fda8 3c3d
000000c0: 9b9e f33d 6e64 393e 816a 39be 90d2 e7bc
000000d0: f6d6 37bc 7142 803b 7032 81bc 19b8 57bd
000000e0: dac3 08be ea58 b03b cc6a 4dbe 1a18 f7bd
000000f0: 8c3b 96bd 7025 62be 2222 14bd 95b8 24be
0.1927372 -0.028147604 0.11939694 -0.06394034 0.42630786 -0.23149978 -0.09546655 0.17716198
0.44779494 -0.13541038 0.07063554 -0.36245883 0.11246922 0.43493727 0.018061224 0.014477568
-0.20298995 -0.0015572641 -0.013225652 -0.2920736 -0.3858173 -0.014266144 -0.40317714 0.38102916
-0.12328851 0.14819522 -0.0012996607 -0.45750216 -0.36905974 0.027540049 0.06323157 0.3828878
0.06530212 -0.20164499 -0.0036436317 -0.3761922 -0.40282947 0.2619992 -0.091591716 0.30481634
-0.02805154 -0.38700482 0.10615451 -0.182984 -0.1426486 0.2630656 0.07452729 0.046059597
0.11895486 0.18104717 -0.18107034 -0.028298646 -0.011220684 0.0039141704 -0.01577112 -0.052665804
-0.13355961 0.005381693 -0.20060271 -0.12065144 -0.073355764 -0.22084594 -0.036165364 -0.16086037

lnetwork.2.weight f4 [8, 64]
00000000: f77f 133f 0a4a 87bf 1ee0 1fbd 2ea3 e23d
00000010: 38af e03d 3e49 72bc 7081 6bbc 11e4 163e
00000020: 2a9c a83d 3f61 823e f516 e13e f088 6e3c
00000030: 5c7d 21be 6c3d 633e d92a 72be d69e 723e
00000040: b66c 243d 5fd0 21be b1c8 33bf 80af 413f
00000050: 8f2e 143e 07cd 53bf 6c2f 35bd f782 613c
00000060: 17a3 483e 4ce9 163e e821 263e 9c2e 363f
00000070: eccf 5d3d 4c72 1abf bdaf 083e 7b54 a23d
00000080: 8faf a6bf 0b18 133c 16e1 b6bd 7c14 863b
00000090: 6032 cdbb 6168 1b3f dc12 a13d 6551 d33c
000000a0: ff4a bf3e 6446 a63d 05b6 93bc 70d8 853c
000000b0: 5689 763e 4867 2c3e 6dbd ae3d fc04 eb3e
000000c0: 6451 15be 3d27 abbc 0282 023e 14c5 d43d
000000d0: d628 cd3e 9f62 84be 81c9 3e3e 9f41 5f3c
000000e0: 2f50 a43e f09d d8bc 3044 b3bd 05a1 803e
000000f0: 80c2 1b3c 982b dabc bc31 de3d f353 39bd
00000100: 3da2 6f3e 2405 32be 5d6e 063f ca07 e83d
00000110: ef37 c43e 555b 083d 80b8 ea3c f12a ea3f
00000120: 70a6 cfbe bafb 2240 657b 393f f83d 9bbd
00000130: 7e1e 393e f5c6 733e 13a5 6ac0 910a 403c
00000140: 07c4 0b3c db04 71be def8 96c0 86f0 8c3e
00000150: abfa 95be 71e5 1cc0 b8b6 413d 6453 8c3e
00000160: 3873 27be 42ba 143e c62a 643e 9cb6 eb3e
00000170: 5456 a7bd eb18 1abe db60 7e3f b6c0 be3d
00000180: b152 30bf c093 aebb a8fe ecbe 1640 a13d
00000190: 00d5 8fbc 6e12 163e a0e7 96bb 7cbb ab3e
000001a0: 5bd3 d5bd 009b 153c f726 e33e 2827 3e3d
000001b0: 7f3a 873e 6da2 743e 7107 533e a054 c53e
000001c0: 539c 16c0 d030 233f 0ded bd3f faf2 ebbd
000001d0: 8908 973e 3b52 2cc0 ef0e 3c3e 10da 7cbf
000001e0: be50 2440 d02d 803c b0ba 48bd adcb fa3e
000001f0: 2195 173f 4c5c 4dbd e29e ad3d 06be f33f
00000200: ef1d da3e 478c 67bf ac4b e33e 397e 8cbc
00000210: 9e68 103e 3cf3 413d d808 eb3d c690 9e3e
00000220: 1f41 543d 4e3a 7f3e e609 f83e 9e2b a1bd
00000230: 93e3 da3d d98e bc3d 66e1 04bf c3f3 be3e
00000240: 7179 40bd 81bb a1be 56da 8dbf ab01 023f
00000250: bbf9 b33d aa9f 9fbf d092 933d af46 513b
00000260: 33ae b63d 4eac f93d 3d08 f33c e841 283f
00000270: fc87 223d 81ae c3be 8fa0 273e 8745 e53d
00000280: 0f0b 87bf 6034 85bd ba5e 843d b0ea a13d
00000290: 668e f4bd 8a22 1a3f 3207 fdbd 02da fa3d
000002a0: 9254 683d c8da b73c 2582 453d 84a5 41bd
000002b0: 5d3c a73e ee26 033e 9b07 283e 0edc 963e
000002c0: 2543 65be 50bb be3d 5f29 c33e a68e b9bd
000002d0: 4fe5 b23e 074f 1cbf 8fa3 4f3e 62e5 3ebc
000002e0: f2a6 c33e 4802 53bd 29a1 b33c b350 eb3e
000002f0: d911 42be 6cb0 06bd ece8 1dbd 499f 2c3e
00000300: 8901 803e f690 98be 8e6f 603f 7a75 c8bd
00000310: 96a5 763e 54e2 2a3e 1a5d 873d a1de 683f
00000320: 75aa 48be 7100 8f3f 2886 763e 2087 cabd
00000330: 21bd af3e 3393 0f3e aca8 ebbf dcec 383f
00000340: 2d5e 003d 2988 37be b146 40c0 f02b 763e
00000350: 3fb8 02bf f34c 6cc0 8463 dd3d 6a71 5b3e
00000360: 33b7 87be e9e8 d33d e383 2d3e 89d0 2a3f
00000370: 9262 d9bd 0558 06be e4b7 44be 7003 073e
00000380: 548c 1fbf a019 d83d 4023 eabe a82c c63d
00000390: d858 d53c 34a0 553e 3ce1 3dbd db70 8a3e
000003a0: c403 9dbd a83c 8bbd 1a7e b03d 4034 23bd
000003b0: 29df a93e e7a2 953e f38a 2f3e 9662 3e3e
000003c0: 66fe aabf a562 1f3f 2e18 fa3f 1999 223d
000003d0: 11b3 37be fbb5 90c0 f310 e53d 9b92 df3d
000003e0: 29e1 be3f 98c4 81bd 0dc0 663b bfb3 d13f
000003f0: c88c 6c3e 8a30 ffbd c4ef 9ebd 22a8 3840
0.57617134 -1.056947 -0.039032094 0.1106628 0.1097092 -0.01478797 -0.014374122 0.14735438
0.08232911 0.25464818 0.43962827 0.014559016 -0.15770477 0.221914 -0.23649158 0.23693404
0.040142737 -0.15802144 -0.70228106 0.75658417 0.14470886 -0.8273472 -0.04423468 0.013764135
0.19593464 0.14737433 0.16223872 0.7116487 0.054153368 -0.60330653 0.13348289 0.079262696
-1.3022326 0.0089779 -0.089296505 0.0040917974 -0.0062621087 0.60706145 0.07864925 0.025795648
0.37361905 0.08118895 -0.01803113 0.016338557 0.24075827 0.16836274 0.08532224 0.4590224
-0.1458183 -0.020892734 0.12744907 0.10389152 0.40070218 -0.25856492 0.18631555 0.013626485
0.32092425 -0.026442498 -0.0875324 0.25122848 0.009506822 -0.026632115 0.1084933 -0.045246076
0.23401733 -0.17384773 0.5251215 0.11329611 0.38323924 0.033290226 0.02865243 1.8294355
-0.4055667 2.5466142 0.7245391 -0.07580179 0.18078038 0.23806365 -3.6663253 0.011721269
0.008530623 -0.23537008 -4.7178793 0.27527255 -0.29292807 -2.451504 0.047293395 0.27407372
-0.16352546 0.14524177 0.22281942 0.46037757 -0.08170763 -0.15048568 0.9936654 0.093141004
-0.6887618 -0.0053276718 -0.46288037 0.078735515 -0.017557621 0.14655468 -0.0046052486 0.33541477
-0.104407035 0.009131193 0.44365665 0.04642406 0.26411816 0.23890086 0.20608307 0.38541126
-2.3532913 0.63746357 1.4837967 -0.115209535 0.294987 -2.692519 0.18365072 -0.98770237
2.567428 0.015646845 -0.049006164 0.48983517 0.5921193 -0.05013685 0.0847757 1.9042366
0.42600963 -0.9044842 0.4439367 -0.017150031 0.14102408 0.047351107 0.11476296 0.30969828
0.051819917 0.24924585 0.48445052 -0.078696474 0.106879376 0.092069335 -0.5190643 0.3729535
-0.046990816 -0.31588367 -1.1082256 0.50783795 0.08787867 -1.2470601 0.07205737 0.0031933
0.089199446 0.12191068 0.029667014 0.65725565 0.039680466 -0.38219073 0.16369842 0.11194902
-1.055025 -0.0650413 0.0646338 0.07906091 -0.11941223 0.6020895 -0.12354888 0.12248613
0.056721278 0.02244319 0.04821982 -0.04727699 0.3266324 0.12807819 0.16409151 0.29464763
-0.22388895 0.09313071 0.381175 -0.09060411 0.34940574 -0.61058086 0.20277236 -0.011651369
0.38213307 -0.051515847 0.021927433 0.45960006 -0.18952121 -0.032883093 -0.03855221 0.16857637
0.2500117 -0.29798096 0.8767022 -0.09788032 0.24086604 0.166879 0.066095546 0.90964705
-0.19596274 1.117201 0.24074614 -0.09889054 0.3432398 0.14020996 -1.841085 0.7223642
0.031339813 -0.17923035 -3.0043147 0.24040198 -0.5106239 -3.6921966 0.10809997 0.21429983
-0.26506957 0.103471585 0.16944842 0.6672445 -0.10614504 -0.13119514 -0.19210774 0.13184905
-0.623235 0.105517626 -0.4573002 0.09676486 0.02604334 0.20861894 -0.04635738 0.27039227
-0.07666734 -0.06798679 0.08617802 -0.03984475 0.3317807 0.29225847 0.17142849 0.18592295
-1.3358886 0.62259895 1.9538629 0.039696787 -0.17939402 -4.5222144 0.111848734 0.10916635
1.4912463 -0.063363254 0.0035209686 1.6382979 0.23100579 -0.1246043 -0.077605754 2.885262

lnetwork.2.bias f4 [8]
00000000: a04f 493e 348e 823d a58c eb3d b63a 843e
00000010: 7159 6b3e 04a1 513d 963e 373e a6c5 503e
0.19659281 0.06374779 0.11501435 0.25826043 0.22983338 0.051178947 0.17894968 0.20387897
