models/model.pth (torch, 5992 bytes, 4 tensors)

lnetwork.0.weight f4 [64, 6]
00000000: f996 b43e d1f4 9fbf 604e bfbe 215f a63f
00000010: e6e8 1fbc bbb5 07bc 49ba e43d 7f4a 09be
00000020: dc45 5a3d 72f5 7cbe 05f4 4c3e 31ea 073f
00000030: befd 00bd f342 b0bd fe7f 2cbe 5b3d 3abf
00000040: b48a 66bd f57b febe 68b9 413d 027d 683e
00000050: 0bfb 2b3e fa1c 3fbf 543d cabd 5256 403f
00000060: 4536 803d cd4d 083a 014a 5cbe 244d 81be
00000070: 35cf 0bbe 965a 3d3e f63d 3f3e f7cb 1cbf
00000080: c218 0c3e b10e 1e3f 3257 a63e 7807 bb3c
00000090: e1a3 d0be 9c07 3ebe 6b44 e9bd abc6 6cbe
000000a0: 3621 08be 2f3f 90bc 8d87 85be 82ec 5a3e
000000b0: 2577 87be 5bdb a03e c4dd bebe 2977 b63e
000000c0: 787c 703e 71c8 f6bd 9d14 23bf 2c2e e13e
000000d0: 23fe 03bf a672 183f 3f2e a83d a4c0 9fbd
000000e0: 3637 c13e 521f 50be fae6 fdbd 6eb4 42bf
000000f0: e23b 5b3c e2f3 de3c 1caf d73e 4a2a 40bf
00000100: b660 ebbe 47e9 3f3f 60de edbe 199f d03e
00000110: 553f bf3e bd37 f3be 4fa8 71bd e7a1 c63c
00000120: 90d2 713e 80e6 12be e979 36be 023b 15bf
00000130: 80b3 94be 5c00 133f fd37 c9be b658 78bd
00000140: 4802 aabd aeca 693e c44b 493e eeee 0c3e
00000150: 1961 85be 6bb0 553e 7251 07bc 62be 813d
00000160: e6c3 2bbe 9f2e d6bd a0f5 93bc 3936 413e
00000170: 9b74 b7be 3478 17bf 1967 4a3e ecde a43d
00000180: c4d4 233e 439a ffbd 6344 4c3c 2393 983e
00000190: d6c6 c23e 72c3 bcbd b3a3 40be 89e0 ed3d
000001a0: 3cdd d8bd 1306 debd 917a 65be c52d 733e
000001b0: 9791 0e3e 16ca adbe 2776 43bd b435 013f
000001c0: 015b febd 0af7 863f 4fa3 a8be 3051 023e
000001d0: 01c5 0c3e d715 1fbf 7c10 c9bd f802 153f
000001e0: f92b dc3d 44c7 923f ed11 ca3d 4e92 4fbf
000001f0: 5e96 a33d ffcb 01bc b9f3 1c3f 8f57 85bd
00000200: a556 46bf ae03 cb3d 8238 883b 9b76 923b
00000210: a798 ac3c bbc0 07bd 9bba d63d 4e3a 64bf
00000220: 422d 5abe 2e1b 633f c4e5 8e3e 28c9 80bd
00000230: 2230 043f 68d0 4b3d 49f3 e5be ec69 283c
00000240: a873 51be cc6a 6fbe d340 a63e 2c9d d33e
00000250: c2cf 743d f66a a6be 5793 3cbd 431c 4e3f
00000260: 0f4d a4bd 6fef 073f 131e ccbd e628 2c3d
00000270: 10cc ebbe 3388 723d ccc4 1abe 1ef4 fa3d
00000280: 90d0 acbe 3cd7 cfbe 648c 503d 8cb7 14be
00000290: 60b8 4c3d 9b91 083d 68fb 7a3e b5a1 f03e
000002a0: 0f6d bcbe 206b b93e b407 6abf 245c 0b3e
000002b0: 41e7 4cbe 0238 8b3e 94e1 38bc 6d64 3abd
000002c0: 6c4d bbbe e103 53bf 4bc6 af3e 36b9 553f
000002d0: 2404 c93c d79f 2dbc c9be 233f 878f 8dbe
000002e0: 9564 2abf 5144 893e dc0f 0fbe 7b5d bdbf
000002f0: 9fd1 cabd 414c 863f b985 abbd c986 9abd
00000300: ccca d9be e6ae ddba e54a 0d3f 2f97 6fbf
00000310: f578 61bc 1d88 9a3c daed 063e 6c52 2f3c
00000320: b3d5 173f 5318 1d3e e2a6 a3bd 02ab 8abd
00000330: 6f65 0e3e 5b77 da3e d860 42bd 46b0 0dbf
00000340: d403 dfbd b74d 113e 1aeb 343e 2c72 6ebe
00000350: 97c1 e6bc 9412 ff3e fc41 823e dad4 fbbe
00000360: dec1 1dbf 0e77 d13d 5d85 233f 5831 0bbe
00000370: 6a72 933b 466f 013c b3c1 5b3e 841c 90bd
00000380: 9b80 07be 7b8e 883c 03cb 83be 4c04 b5bb
00000390: 5457 fa3d 2d45 1abe ab47 a8be f2ef 2abe
000003a0: 3cbd 80be 82fc 8bbe e651 863e e59d 7e3f
000003b0: 3447 95be 06e2 c0bf 7878 e1bb df47 a5bc
000003c0: 6e70 9a3d 27d0 843c 28e8 72be 4d26 b4be
000003d0: 53c9 933c 9e3f 6f3e 3aac 043f 7918 fb3e
000003e0: 85d8 08bf fe5d f9be e8f8 c93b 537e 96bc
000003f0: 101d 8c3e 7bca fabe 4ecb f1be 0b34 2a3e
0.35271433 -1.2496587 -0.37364483 1.2997781 -0.009760117 -0.008283074 0.111683436 -0.13407324
0.05328928 -0.24703005 0.20014961 0.5309172 -0.031491987 -0.086065196 -0.168457 -0.7274987
-0.05628462 -0.49703947 0.047295958 0.22703937 0.16794984 -0.7465359 -0.09874979 0.75131714
0.06260351 0.00051995815 -0.21512605 -0.25254166 -0.13653262 0.18491587 0.1867598 -0.61248726
0.1368132 0.6174117 0.324884 0.02283071 -0.4075003 -0.1855759 -0.11390003 -0.23122661
-0.13293919 -0.017608253 -0.2607998 0.21379283 -0.26458088 0.31417355 -0.3727857 0.35637787
0.23484981 -0.1204995 -0.6370333 0.4398054 -0.51559657 0.5954994 0.08211946 -0.07800415
0.37737435 -0.20324448 -0.12397571 -0.76056564 0.013380976 0.027215902 0.42125785 -0.7506453
-0.45972222 0.7496533 -0.4645872 0.40746382 0.37353006 -0.47503462 -0.058998402 0.024247123
0.2361548 -0.14345741 -0.17819943 -0.58293164 -0.29043198 0.57422423 -0.39300528 -0.060631476
-0.08301216 0.22831222 0.19657809 0.1376302 -0.26050642 0.2086808 -0.008259164 0.06335141
-0.16773948 -0.10458111 -0.018061459 0.1886834 -0.3583115 -0.5916779 0.19765891 0.080503315
0.15999132 -0.12480595 0.012467477 0.29799756 0.38042325 -0.09216966 -0.18812446 0.11615092
-0.10589072 -0.10841002 -0.22410037 0.23747928 0.13922726 -0.33943242 -0.0477201 0.5047257
-0.12419701 1.054414 -0.32937095 0.12726283 0.13747026 -0.621427 -0.09817597 0.58207655
0.107505746 1.1467061 0.098667 -0.8108262 0.07987665 -0.007922172 0.6130939 -0.06510841
-0.7747596 0.09912811 0.004157127 0.0044697053 0.021068884 -0.033142786 0.10484811 -0.89151466
-0.21306327 0.8871335 0.27909672 -0.062883675 0.51635945 0.0497593 -0.44912174 0.01027916
-0.20454276 -0.23380584 0.32471332 0.4133085 0.059768446 -0.3250348 -0.04603895 0.80511874
-0.0802251 0.5309972 -0.09966674 0.04203119 -0.46054125 0.05921192 -0.15114135 0.12253593
-0.3375287 -0.40593898 0.050915137 -0.14523143 0.04998052 0.033341985 0.24509966 0.46998373
-0.36801955 0.36214542 -0.91418004 0.13609368 -0.20010091 0.27191168 -0.011284251 -0.04550593
-0.36582506 -0.82427794 0.34330973 0.83485734 0.024538107 -0.010597191 0.6396299 -0.27648565
-0.66559726 0.26809934 -0.13970894 -1.4794153 -0.09903263 1.0492021 -0.08375115 -0.075452395
-0.42537534 -0.0016913086 0.55192405 -0.9359006 -0.013761749 0.018863732 0.1317667 0.010700803
0.59310454 0.1534131 -0.07990815 -0.067708984 0.13905881 0.42669186 -0.04745564 -0.55347097
-0.10889402 0.14189802 0.17667809 -0.2328574 -0.028168483 0.4981886 0.25440967 -0.4918583
-0.6162394 0.10227786 0.6387537 -0.13593042 0.004499723 0.007900065 0.21460609 -0.07036689
-0.13232653 0.016669502 -0.25740823 -0.005524194 0.12223688 -0.15065451 -0.32867178 -0.16693094
-0.25144374 -0.27341086 0.2623436 0.9945968 -0.29155886 -1.5068977 -0.006880816 -0.020175872
0.075409755 0.016212536 -0.23721373 -0.3518547 0.018040335 0.23364112 0.51825297 0.4904211
-0.5345538 -0.48704523 0.006163705 -0.018370783 0.27365923 -0.48982605 -0.47225422 0.16621415

lnetwork.0.bias f4 [64]
00000000: 5a52 a23b abea e33d 4773 48be bacc c83c
00000010: daf3 bfbe ea52 7fbe 58b4 bbbe 1712 a4be
00000020: d71c e03d 5f1b 893c 7b23 223b 373f 1e3e
00000030: f880 b23c df73 4cbe d9e0 563e cb34 563e
00000040: ecd4 bdbe d45d d03e fb2a a3be 59a3 ae3e
00000050: a87c 66be ccc4 fb3d b249 123e 8545 9fbe
00000060: 58d6 eb3c aa33 42be f398 4b3e da36 06be
00000070: 5d63 113e 0923 d23c 5d0b d1bb 1a72 b83d
00000080: 7b51 3e3e 7b28 47be 4bea be3d 48f5 15be
00000090: 47a5 1cbc 1f22 a33d a748 ccbe a9d3 193d
000000a0: dfb2 943e 2eeb 34bb 074e 7d3e fd67 3bbc
000000b0: 4f68 c2be ba37 a8be e9a3 ccbb b1a8 043e
000000c0: 1e99 40be dda7 dbbc 7a18 363e 19cc 523c
000000d0: 703f 84be 07ee 0abe cb86 9cbe 354e cdbe
000000e0: 0e0d acbe e80f 183e 8456 89bc 6ce6 823d
000000f0: af53 c2bd b519 80bd 27aa e0be 5da6 85bd
0.0049536647 0.11128744 -0.19575225 0.024511684 -0.3749073 -0.24933973 -0.3666103 -0.3204505
0.10943001 0.016736684 0.0024740386 0.15453802 0.021790013 -0.19966076 0.2098421 0.20918576
-0.3707651 0.40696585 -0.3186873 0.34109 -0.2250849 0.122933954 0.14285925 -0.31107727
0.02878873 -0.18965021 0.19882564 -0.13106862 0.1419806 0.025651472 -0.0063795284 0.09006138
0.1858577 -0.19449036 0.093220316 -0.14644349 -0.00956089 0.079654925 -0.3989918 0.03755537
0.29042718 -0.0027605998 0.24736796 -0.011438367 -0.37970206 -0.32855016 -0.0062451256 0.12954976
-0.1880841 -0.026813442 0.17782775 0.0128660435 -0.2582965 -0.13567363 -0.3057159 -0.4009873
-0.3360371 0.14849818 -0.016764887 0.06391606 -0.09488618 -0.06254903 -0.43879816 -0.06525872

lnetwork.2.weight f4 [8, 64]
00000000: 0824 46bf 349b 183e dfea 8a3e 43ff 003f
00000010: b6df e3bd 9505 823e ce29 ffbd 7006 e73d
00000020: f20c f73d a8e7 07be cafb b3bf e4d5 733e
00000030: cb05 133f bcc1 43bd 33fc aebe f5e4 543e
00000040: ebac 82be 68d2 843d 3720 0a3e 9cb5 a83e
00000050: b683 8b3e 6c69 ef3d e9ea 2b3f 3a1d 713f
00000060: 7f2d 76bd 62ec db3e d3a8 f33d 769b 3a3e
00000070: fefe 953d 0c89 92bf b3b8 85bf e4a3 7cbc
00000080: c497 a33c c910 88bd a222 5d3e e7f2 4c3a
00000090: 50c1 ffbe 5ae3 c2bc e84f a9bc a823 8e3e
000000a0: de05 5a3e 3892 50be c5a2 233c a4fc 98bd
000000b0: 70eb c3bc 4d89 7abd 136b 9dbf 3c02 b93d
000000c0: e47f 42bd 99ca 523e 800b f33e 4fa5 a73e
000000d0: f000 3abd b32f 5c3d 05da d4be 38bb 70bd
000000e0: 0a65 d2bd 0083 82bd e455 18bf 303d 513e
000000f0: 584f 99bd c987 53bd 652d d3b8 163a 383e
00000100: 226e 2dc0 da48 f63d 6aa0 f0bd f8bd 453e
00000110: 40fe cdbb dcfc 243e f83f 69bd e218 d63d
00000120: 4d99 483f 8a2a 7fbd 7839 c1be f82b ed3e
00000130: b554 a13d d4a4 2ebd 1514 87b9 d522 733d
00000140: a463 1fbf 0a78 073e 2a2c 833f 8609 873e
00000150: 8231 c53e f563 9fbe 8108 f83c 50e4 b93e
00000160: bbd2 053e b3fd f53e 0774 ddbe 3d7b 163d
00000170: 4948 193f ccbf b4be 6494 5fbe b807 b53f
00000180: 5727 b5bf 3e5b 783c c73d c93d 709c 043e
00000190: 152d 90bf 67b3 523e 4c5d 75bd b4ed c83f
000001a0: e5c8 643e 7dad 86bf 5205 843e 3225 5abf
000001b0: f482 153d 6e03 82be 67b8 4abe 9f25 0e3e
000001c0: 8028 79bd 0531 ad3e 630e 243f 50b7 5f3c
000001d0: 30fe df3c 497c 7b3d bd4a b6bd 00da 503a
000001e0: b232 823d 43fd 163e a041 c2bf bceb ed3e
000001f0: b8a5 493d 6ed1 303f 3be3 81bc 13df c7be
00000200: 328a 04bf 30e3 903d 3328 0dbe 044a 9e3d
00000210: 088c 2c3d adbe 983d e01d 3b3c 2c1a 95bd
00000220: 52b3 1b3f 4e0c a4bd bcb7 64be e3d2 aa3d
00000230: 714d 843d 609a 5f3d 7882 e43c c2ec c13d
00000240: a8b7 ffbc 53f7 283e c4ba bf3c 4964 003e
00000250: 3fb2 123e 0d1d 123e 5d4c 0fbd b5d1 113e
00000260: 5a98 b83d 45ad ef3d a71c 3f3e 08bb a13d
00000270: 1ebb dc3e 8aa6 39be 5762 0fbe 2c90 103e
00000280: e560 10bc 9958 cc3d 32ad b43d d91a bb3d
00000290: a05f 85be a9e4 923d d08c 9f3d 4027 493e
000002a0: 8535 353d c0c4 44be f30b 983d b2e4 19be
000002b0: 40d7 04bd e595 75be 81af f2bd 6a94 21bd
000002c0: 842c c3bd f5a6 0d3d 3d69 693e 0880 9f3d
000002d0: 60cc 873d 7754 d3bd 1b1f 4dbc b870 27bd
000002e0: 08b2 123d fb94 c73b eb89 c1be a961 b43d
000002f0: 0443 e2bd a8e4 c63d 3619 38bd 5dd1 ecbc
00000300: 0b0a 8dbf 786e 323e 2106 cc3c f1ad ac3e
00000310: 4886 3b3d 8911 023e 9074 db3c 0c66 83bd
00000320: 8499 8d3e b04d 8dbd 931a 59bf 0367 df3d
00000330: bdd6 e63e 38a2 80bd daf8 8bbd 859e aa3d
00000340: 4049 943d 3ae4 803d ca88 0e3e 9335 e23c
00000350: c35b d53e 734a d33e a94a f73e 9462 4b3f
00000360: c8ea a6ba 622d 46bd fef5 f4bc 5378 0d3e
00000370: 05a6 473f b900 4abf a16a 08bf dd1c da3e
00000380: 9cfb 8cbe 8fdb 263a ee42 813e ffd9 533d
00000390: 888a e3be a016 66be f06a bc3d 9351 383f
000003a0: 9bb9 4f3d dacc 68bf ffcd 353e b97a 6bbe
000003b0: 2862 8d3c aa0e f5bd 42ca d9be 63e1 743d
000003c0: 0e95 d1bd 1056 803e 1741 703e bafa 913e
000003d0: f0fd 9e3c 01a0 e1bb 1ea9 2dbe 40f9 dc3b
000003e0: c05f f4bb a65f 373c c80d 59bf 06c0 a93d
000003f0: 00e0 8c37 f482 7e3e 3d67 9a3d 638d 223d
-0.7739873 0.14902955 0.27132317 0.503895 -0.11126654 0.25394884 -0.124591455 0.11280525
0.12063016 -0.13271964 -1.4061215 0.23812062 0.57430714 -0.04779218 -0.34176788 0.20790465
-0.2552255 0.06485444 0.13488851 0.32951057 0.27248925 0.116900295 0.6715532 0.9418522
-0.060101982 0.42953783 0.11897435 0.18223366 0.073240265 -1.1448073 -1.0446991 -0.015419934
0.019969828 -0.066438265 0.21595243 0.00078181777 -0.49952173 -0.02379005 -0.020667985 0.2776158
0.212913 -0.20368278 0.009987538 -0.074700624 -0.023915976 -0.061166096 -1.2298301 0.09033629
-0.047485247 0.20585097 0.4746971 0.32743308 -0.04541105 0.053756427 -0.41572586 -0.058772296
-0.10273178 -0.063726425 -0.5950606 0.20433497 -0.07485837 -0.051643167 -0.000100697194 0.17990908
-2.709847 0.12025614 -0.117493466 0.19310749 -0.0062864125 0.16112083 -0.05694577 0.10453965
0.7835892 -0.062296428 -0.37739158 0.46322608 0.07877485 -0.04263766 -0.0002576417 0.05935939
-0.62261415 0.13229385 1.0247853 0.26374453 0.38514334 -0.3113095 0.030277492 0.36307
0.13068669 0.4804512 -0.43252584 0.036738623 0.59875923 -0.3530258 -0.2183395 1.414298
-1.415263 0.015158473 0.09826236 0.12950301 -1.1263758 0.20576249 -0.059903428 1.5697541
0.2234226 -1.0521694 0.2578531 -0.85213006 0.03650184 -0.25393242 -0.19796906 0.13881539
-0.06082964 0.3382646 0.6408445 0.013654545 0.027342886 0.061397824 -0.08900974 0.0007967055
0.063573256 0.14745049 -1.5176277 0.46468914 0.049230307 0.69069564 -0.015855422 -0.3903738
-0.5177337 0.070745826 -0.13784866 0.07728961 0.04212573 0.074582435 0.011420697 -0.072803825
0.60820496 -0.080101594 -0.22335714 0.08341005 0.06460083 0.054590583 0.027894244 0.09468986
-0.031215504 0.16500597 0.023404486 0.12538256 0.14325808 0.14268894 -0.034984935 0.14240153
0.09013434 0.117029704 0.18663274 0.078970015 0.4311151 -0.18129936 -0.14002357 0.14117497
-0.008812164 0.09977836 0.08822097 0.0913598 -0.2604952 0.0717252 0.0779053 0.19643879
0.044240493 -0.19215679 0.07424154 -0.15028647 -0.03243184 -0.23982961 -0.11849881 -0.03944818
-0.09529975 0.03458305 0.22794051 0.07788092 0.06630778 -0.10318845 -0.012519623 -0.04087898
0.035814315 0.006090758 -0.37800536 0.0880769 -0.110479385 0.097115815 -0.044945918 -0.028908426
-1.101869 0.17424953 0.024905266 0.33726457 0.045782357 0.12702002 0.02678898 -0.06415948
0.27656186 -0.06899583 -0.84806174 0.1090832 0.45085707 -0.06280941 -0.06834574 0.083310165
0.07240534 0.06293531 0.13919368 0.027613437 0.4167157 0.41267738 0.4829915 0.79447293
-0.0012734765 -0.048383124 -0.029902454 0.13815431 0.779877 -0.7890735 -0.532877 0.42600146
-0.27535713 0.0006365114 0.25246376 0.05172157 -0.44441628 -0.22469568 0.09200084 0.7199947
0.050714117 -0.9093758 0.17754363 -0.22996034 0.017258719 -0.119656876 -0.42537123 0.059785258
-0.10233508 0.2506566 0.2346233 0.28511602 0.019408196 -0.006885529 -0.16959044 0.00674358
-0.0074577034 0.011192238 -0.84786654 0.08288579 1.6793609e-05 0.24854642 0.075392224 0.039685618

lnetwork.2.bias f4 [8]
00000000: 221f ebbc 7ad7 8d3d 48d3 0c3b 1397 2a3d
00000010: 88a4 3a3e 52d8 1d3c 7ff5 e83d a8ab 9c3c
-0.028701369 0.069258645 0.0021488238 0.04164798 0.18226826 0.009634094 0.1137495 0.01912482
